…
57638912/58889256 [============================>.] - ETA: 1s
57901056/58889256 [============================>.] - ETA: 1s
58163200/58889256 [============================>.] - ETA: 0s
58425344/58889256 [============================>.] - ETA: 0s
58687488/58889256 [============================>.] - ETA: 0s
58892288/58889256 [==============================] - 71s 1us/step
*********download success*********
_________________________________________________________________
Layer (type)                 Output Shape              Param #   
=================================================================
input_1 (InputLayer)         (None, 75, 75, 3)         0         
_________________________________________________________________
block1_conv1 (Conv2D)        (None, 75, 75, 64)        1792      
_________________________________________________________________
block1_conv2 (Conv2D)        (None, 75, 75, 64)        36928     
_________________________________________________________________
block1_pool (MaxPooling2D)   (None, 37, 37, 64)        0         
_________________________________________________________________
block2_conv1 (Conv2D)        (None, 37, 37, 128)       73856     
_________________________________________________________________
block2_conv2 (Conv2D)        (None, 37, 37, 128)       147584    
_________________________________________________________________
block2_pool (MaxPooling2D)   (None, 18, 18, 128)       0         
_________________________________________________________________
block3_conv1 (Conv2D)        (None, 18, 18, 256)       295168    
_________________________________________________________________
block3_conv2 (Conv2D)        (None, 18, 18, 256)       590080    
_________________________________________________________________
block3_conv3 (Conv2D)        (None, 18, 18, 256)       590080    
_________________________________________________________________
block3_pool (MaxPooling2D)   (None, 9, 9, 256)         0         
_________________________________________________________________
block4_conv1 (Conv2D)        (None, 9, 9, 512)         1180160   
_________________________________________________________________
block4_conv2 (Conv2D)        (None, 9, 9, 512)         2359808   
_________________________________________________________________
block4_conv3 (Conv2D)        (None, 9, 9, 512)         2359808   
_________________________________________________________________
block4_pool (MaxPooling2D)   (None, 4, 4, 512)         0         
_________________________________________________________________
block5_conv1 (Conv2D)        (None, 4, 4, 512)         2359808   
_________________________________________________________________
block5_conv2 (Conv2D)        (None, 4, 4, 512)         2359808   
_________________________________________________________________
block5_conv3 (Conv2D)        (None, 4, 4, 512)         2359808   
_________________________________________________________________
block5_pool (MaxPooling2D)   (None, 2, 2, 512)         0         
_________________________________________________________________
sequential_1 (Sequential)    (None, 2)                 4098      
=================================================================
Total params: 14,718,786
Trainable params: 14,718,786
Non-trainable params: 0
_________________________________________________________________
****train data reading:..\data\output\train/0/*/0/*.jpg
****train data reading:..\data\output\train/0/*/1/*.jpg
****valid data reading:..\data\output\valid/0/*/0/*.jpg
****valid data reading:..\data\output\valid/0/*/1/*.jpg
…
